AE(
  (Tmodel): ae_backbone(
    (fe1): FE(
      (FC1): Linear(in_features=15, out_features=256, bias=True)
      (activation1): ReLU()
      (FC2): Linear(in_features=256, out_features=256, bias=True)
      (activation2): ReLU()
      (FC3): Linear(in_features=256, out_features=256, bias=True)
      (FC4): Linear(in_features=512, out_features=128, bias=True)
    )
    (norm1): LayerNorm((128,), eps=1e-05, elementwise_affine=True)
    (out1): Linear(in_features=128, out_features=32, bias=True)
    (out2): Linear(in_features=32, out_features=1, bias=True)
    (dropout): Dropout(p=0.0, inplace=False)
  )
  (Rmodel): ae_backbone(
    (fe1): FE(
      (FC1): Linear(in_features=12, out_features=64, bias=True)
      (activation1): ReLU()
      (FC2): Linear(in_features=64, out_features=64, bias=True)
      (activation2): ReLU()
      (FC3): Linear(in_features=64, out_features=64, bias=True)
      (FC4): Linear(in_features=128, out_features=32, bias=True)
    )
    (norm1): LayerNorm((32,), eps=1e-05, elementwise_affine=True)
    (out): Linear(in_features=32, out_features=16, bias=True)
    (dropout): Dropout(p=0.0, inplace=False)
  )
  (total_power_reloc): Power_reallocate()
)
Total number of trainable parameters: 219646
Total number of trainable parameters in Tmodel: 205761
Total number of trainable parameters in Rmodel: 13872
-->-->-->-->-->-->-->-->-->--> start training ...

GBAF train stats: batch#0, lr 0.001, snr1 -1.0, snr2 100.0, BS 50000, Loss 2.92448306
Testing started: ... 

GBAF test stats: batch#0, SER 0.9286779761, numErr 464339, num_pkts 5.00e+05
Time elapsed: 0.0054255366325378414 mins

GBAF test stats: batch#0, SER 0.9286779761, numErr 464339
Final test SER = 0.9286779761314392, at SNR1 -1.0, SNR2 100.0 for rate 4/12
Final test PER = 0.9286779761314392, at SNR1 -1.0, SNR2 100.0 for rate 4/12
AE(
  (Tmodel): ae_backbone(
    (fe1): FE(
      (FC1): Linear(in_features=15, out_features=256, bias=True)
      (activation1): ReLU()
      (FC2): Linear(in_features=256, out_features=256, bias=True)
      (activation2): ReLU()
      (FC3): Linear(in_features=256, out_features=256, bias=True)
      (FC4): Linear(in_features=512, out_features=128, bias=True)
    )
    (norm1): LayerNorm((128,), eps=1e-05, elementwise_affine=True)
    (out1): Linear(in_features=128, out_features=32, bias=True)
    (out2): Linear(in_features=32, out_features=1, bias=True)
    (dropout): Dropout(p=0.0, inplace=False)
  )
  (Rmodel): ae_backbone(
    (fe1): FE(
      (FC1): Linear(in_features=12, out_features=64, bias=True)
      (activation1): ReLU()
      (FC2): Linear(in_features=64, out_features=64, bias=True)
      (activation2): ReLU()
      (FC3): Linear(in_features=64, out_features=64, bias=True)
      (FC4): Linear(in_features=128, out_features=32, bias=True)
    )
    (norm1): LayerNorm((32,), eps=1e-05, elementwise_affine=True)
    (out): Linear(in_features=32, out_features=16, bias=True)
    (dropout): Dropout(p=0.0, inplace=False)
  )
  (total_power_reloc): Power_reallocate()
)
Total number of trainable parameters: 219646
Total number of trainable parameters in Tmodel: 205761
Total number of trainable parameters in Rmodel: 13872
-->-->-->-->-->-->-->-->-->--> start training ...

GBAF train stats: batch#0, lr 0.001, snr1 -1.0, snr2 100.0, BS 50000, Loss 2.92448306
Testing started: ... 

GBAF test stats: batch#0, SER 0.9286779761, numErr 464339, num_pkts 5.00e+05
Time elapsed: 0.0054825226465861 mins

GBAF test stats: batch#0, SER 0.9286779761, numErr 464339
Final test SER = 0.9286779761314392, at SNR1 -1.0, SNR2 100.0 for rate 4/12
Final test PER = 0.9286779761314392, at SNR1 -1.0, SNR2 100.0 for rate 4/12
AE(
  (Tmodel): ae_backbone(
    (fe1): FE(
      (FC1): Linear(in_features=15, out_features=256, bias=True)
      (activation1): ReLU()
      (FC2): Linear(in_features=256, out_features=256, bias=True)
      (activation2): ReLU()
      (FC3): Linear(in_features=256, out_features=256, bias=True)
      (FC4): Linear(in_features=512, out_features=128, bias=True)
    )
    (norm1): LayerNorm((128,), eps=1e-05, elementwise_affine=True)
    (out1): Linear(in_features=128, out_features=32, bias=True)
    (out2): Linear(in_features=32, out_features=1, bias=True)
    (dropout): Dropout(p=0.0, inplace=False)
  )
  (Rmodel): ae_backbone(
    (fe1): FE(
      (FC1): Linear(in_features=12, out_features=64, bias=True)
      (activation1): ReLU()
      (FC2): Linear(in_features=64, out_features=64, bias=True)
      (activation2): ReLU()
      (FC3): Linear(in_features=64, out_features=64, bias=True)
      (FC4): Linear(in_features=128, out_features=32, bias=True)
    )
    (norm1): LayerNorm((32,), eps=1e-05, elementwise_affine=True)
    (out): Linear(in_features=32, out_features=16, bias=True)
    (dropout): Dropout(p=0.0, inplace=False)
  )
  (total_power_reloc): Power_reallocate()
)
Total number of trainable parameters: 219646
Total number of trainable parameters in Tmodel: 205761
Total number of trainable parameters in Rmodel: 13872
-->-->-->-->-->-->-->-->-->--> start training ...

GBAF train stats: batch#0, lr 0.001, snr1 -1.0, snr2 100.0, BS 50000, Loss 2.92448306
…
Final test SER = 0.0002119999990100041, at SNR1 -1.0, SNR2 100.0 for rate 4/12
Final test PER = 0.0002119999990100041, at SNR1 -1.0, SNR2 100.0 for rate 4/12

GBAF train stats: batch#50000, lr 0.001, snr1 -1.0, snr2 100.0, BS 50000, Loss 0.00075976
Testing started: ... 

GBAF test stats: batch#0, SER 0.000216, numErr 108, num_pkts 5.00e+05
Time elapsed: 0.005475783348083496 mins

GBAF test stats: batch#0, SER 0.000216, numErr 108
Final test SER = 0.00021600000036414713, at SNR1 -1.0, SNR2 100.0 for rate 4/12
Final test PER = 0.00021600000036414713, at SNR1 -1.0, SNR2 100.0 for rate 4/12
AE(
  (Tmodel): ae_backbone(
    (fe1): FE(
      (FC1): Linear(in_features=15, out_features=256, bias=True)
      (activation1): ReLU()
      (FC2): Linear(in_features=256, out_features=256, bias=True)
      (activation2): ReLU()
      (FC3): Linear(in_features=256, out_features=256, bias=True)
      (FC4): Linear(in_features=512, out_features=128, bias=True)
    )
    (norm1): LayerNorm((128,), eps=1e-05, elementwise_affine=True)
    (out1): Linear(in_features=128, out_features=32, bias=True)
    (out2): Linear(in_features=32, out_features=1, bias=True)
    (dropout): Dropout(p=0.0, inplace=False)
  )
  (Rmodel): ae_backbone(
    (fe1): FE(
      (FC1): Linear(in_features=12, out_features=64, bias=True)
      (activation1): ReLU()
      (FC2): Linear(in_features=64, out_features=64, bias=True)
      (activation2): ReLU()
      (FC3): Linear(in_features=64, out_features=64, bias=True)
      (FC4): Linear(in_features=128, out_features=32, bias=True)
    )
    (norm1): LayerNorm((32,), eps=1e-05, elementwise_affine=True)
    (out): Linear(in_features=32, out_features=16, bias=True)
    (dropout): Dropout(p=0.0, inplace=False)
  )
  (total_power_reloc): Power_reallocate()
)
Total number of trainable parameters: 219646
Total number of trainable parameters in Tmodel: 205761
Total number of trainable parameters in Rmodel: 13872
-->-->-->-->-->-->-->-->-->--> start training ...

GBAF train stats: batch#0, lr 0.001, snr1 -1.0, snr2 100.0, BS 50000, Loss 2.92448306
…
