AE(
  (Tmodel): ae_backbone(
    (fe1): FE(
      (FC1): Linear(in_features=3, out_features=64, bias=True)
      (activation1): ReLU()
      (FC2): Linear(in_features=64, out_features=64, bias=True)
      (activation2): ReLU()
      (FC3): Linear(in_features=64, out_features=64, bias=True)
      (FC4): Linear(in_features=128, out_features=32, bias=True)
    )
    (norm1): LayerNorm((32,), eps=1e-05, elementwise_affine=True)
    (fe2): FE(
      (FC1): Linear(in_features=32, out_features=64, bias=True)
      (activation1): ReLU()
      (FC2): Linear(in_features=64, out_features=64, bias=True)
      (activation2): ReLU()
      (FC3): Linear(in_features=64, out_features=64, bias=True)
      (FC4): Linear(in_features=128, out_features=32, bias=True)
    )
    (norm2): LayerNorm((32,), eps=1e-05, elementwise_affine=True)
    (fe3): FE(
      (FC1): Linear(in_features=32, out_features=64, bias=True)
      (activation1): ReLU()
      (FC2): Linear(in_features=64, out_features=64, bias=True)
      (activation2): ReLU()
      (FC3): Linear(in_features=64, out_features=64, bias=True)
      (FC4): Linear(in_features=128, out_features=32, bias=True)
    )
    (norm3): LayerNorm((32,), eps=1e-05, elementwise_affine=True)
    (out1): Linear(in_features=32, out_features=8, bias=True)
    (out2): Linear(in_features=8, out_features=1, bias=True)
    (dropout): Dropout(p=0.0, inplace=False)
  )
  (Nmodel): ae_backbone(
    (fe1): FE(
      (FC1): Linear(in_features=7, out_features=64, bias=True)
      (activation1): ReLU()
      (FC2): Linear(in_features=64, out_features=64, bias=True)
      (activation2): ReLU()
      (FC3): Linear(in_features=64, out_features=64, bias=True)
      (FC4): Linear(in_features=128, out_features=32, bias=True)
    )
    (norm1): LayerNorm((32,), eps=1e-05, elementwise_affine=True)
    (fe2): FE(
      (FC1): Linear(in_features=32, out_features=64, bias=True)
      (activation1): ReLU()
      (FC2): Linear(in_features=64, out_features=64, bias=True)
      (activation2): ReLU()
      (FC3): Linear(in_features=64, out_features=64, bias=True)
      (FC4): Linear(in_features=128, out_features=32, bias=True)
    )
    (norm2): LayerNorm((32,), eps=1e-05, elementwise_affine=True)
    (fe3): FE(
      (FC1): Linear(in_features=32, out_features=64, bias=True)
      (activation1): ReLU()
      (FC2): Linear(in_features=64, out_features=64, bias=True)
      (activation2): ReLU()
      (FC3): Linear(in_features=64, out_features=64, bias=True)
      (FC4): Linear(in_features=128, out_features=32, bias=True)
    )
    (norm3): LayerNorm((32,), eps=1e-05, elementwise_affine=True)
    (out1): Linear(in_features=32, out_features=8, bias=True)
    (out2): Linear(in_features=8, out_features=1, bias=True)
    (dropout): Dropout(p=0.0, inplace=False)
  )
  (Rmodel): ae_backbone(
    (fe1): FE(
      (FC1): Linear(in_features=5, out_features=64, bias=True)
      (activation1): ReLU()
      (FC2): Linear(in_features=64, out_features=64, bias=True)
      (activation2): ReLU()
      (FC3): Linear(in_features=64, out_features=64, bias=True)
      (FC4): Linear(in_features=128, out_features=32, bias=True)
    )
    (norm1): LayerNorm((32,), eps=1e-05, elementwise_affine=True)
    (fe2): FE(
      (FC1): Linear(in_features=32, out_features=64, bias=True)
      (activation1): ReLU()
      (FC2): Linear(in_features=64, out_features=64, bias=True)
      (activation2): ReLU()
      (FC3): Linear(in_features=64, out_features=64, bias=True)
      (FC4): Linear(in_features=128, out_features=32, bias=True)
    )
    (norm2): LayerNorm((32,), eps=1e-05, elementwise_affine=True)
    (fe3): FE(
      (FC1): Linear(in_features=32, out_features=64, bias=True)
      (activation1): ReLU()
      (FC2): Linear(in_features=64, out_features=64, bias=True)
      (activation2): ReLU()
      (FC3): Linear(in_features=64, out_features=64, bias=True)
      (FC4): Linear(in_features=128, out_features=32, bias=True)
    )
    (norm3): LayerNorm((32,), eps=1e-05, elementwise_affine=True)
    (out): Linear(in_features=32, out_features=8, bias=True)
    (dropout): Dropout(p=0.0, inplace=False)
  )
  (total_power_reloc): Power_reallocate()
)
Total number of trainable parameters: 127248
Total number of trainable parameters in Tmodel: 42289
Total number of trainable parameters in Rmodel: 42408
-->-->-->-->-->-->-->-->-->--> start training ...
AE(
  (Tmodel): ae_backbone(
    (fe1): FE(
      (FC1): Linear(in_features=3, out_features=64, bias=True)
      (activation1): ReLU()
      (FC2): Linear(in_features=64, out_features=64, bias=True)
      (activation2): ReLU()
      (FC3): Linear(in_features=64, out_features=64, bias=True)
      (FC4): Linear(in_features=128, out_features=32, bias=True)
    )
    (norm1): LayerNorm((32,), eps=1e-05, elementwise_affine=True)
    (fe2): FE(
      (FC1): Linear(in_features=32, out_features=64, bias=True)
      (activation1): ReLU()
      (FC2): Linear(in_features=64, out_features=64, bias=True)
      (activation2): ReLU()
      (FC3): Linear(in_features=64, out_features=64, bias=True)
      (FC4): Linear(in_features=128, out_features=32, bias=True)
    )
    (norm2): LayerNorm((32,), eps=1e-05, elementwise_affine=True)
    (fe3): FE(
      (FC1): Linear(in_features=32, out_features=64, bias=True)
      (activation1): ReLU()
      (FC2): Linear(in_features=64, out_features=64, bias=True)
      (activation2): ReLU()
      (FC3): Linear(in_features=64, out_features=64, bias=True)
      (FC4): Linear(in_features=128, out_features=32, bias=True)
    )
    (norm3): LayerNorm((32,), eps=1e-05, elementwise_affine=True)
    (out1): Linear(in_features=32, out_features=8, bias=True)
    (out2): Linear(in_features=8, out_features=1, bias=True)
    (dropout): Dropout(p=0.0, inplace=False)
  )
  (Nmodel): ae_backbone(
    (fe1): FE(
      (FC1): Linear(in_features=7, out_features=64, bias=True)
      (activation1): ReLU()
      (FC2): Linear(in_features=64, out_features=64, bias=True)
      (activation2): ReLU()
      (FC3): Linear(in_features=64, out_features=64, bias=True)
      (FC4): Linear(in_features=128, out_features=32, bias=True)
    )
    (norm1): LayerNorm((32,), eps=1e-05, elementwise_affine=True)
    (fe2): FE(
      (FC1): Linear(in_features=32, out_features=64, bias=True)
      (activation1): ReLU()
      (FC2): Linear(in_features=64, out_features=64, bias=True)
      (activation2): ReLU()
      (FC3): Linear(in_features=64, out_features=64, bias=True)
      (FC4): Linear(in_features=128, out_features=32, bias=True)
    )
    (norm2): LayerNorm((32,), eps=1e-05, elementwise_affine=True)
    (fe3): FE(
      (FC1): Linear(in_features=32, out_features=64, bias=True)
      (activation1): ReLU()
      (FC2): Linear(in_features=64, out_features=64, bias=True)
      (activation2): ReLU()
      (FC3): Linear(in_features=64, out_features=64, bias=True)
      (FC4): Linear(in_features=128, out_features=32, bias=True)
    )
    (norm3): LayerNorm((32,), eps=1e-05, elementwise_affine=True)
    (out1): Linear(in_features=32, out_features=8, bias=True)
    (out2): Linear(in_features=8, out_features=1, bias=True)
    (dropout): Dropout(p=0.0, inplace=False)
  )
  (Rmodel): ae_backbone(
    (fe1): FE(
      (FC1): Linear(in_features=5, out_features=64, bias=True)
      (activation1): ReLU()
      (FC2): Linear(in_features=64, out_features=64, bias=True)
      (activation2): ReLU()
      (FC3): Linear(in_features=64, out_features=64, bias=True)
      (FC4): Linear(in_features=128, out_features=32, bias=True)
    )
    (norm1): LayerNorm((32,), eps=1e-05, elementwise_affine=True)
    (fe2): FE(
      (FC1): Linear(in_features=32, out_features=64, bias=True)
      (activation1): ReLU()
      (FC2): Linear(in_features=64, out_features=64, bias=True)
      (activation2): ReLU()
      (FC3): Linear(in_features=64, out_features=64, bias=True)
      (FC4): Linear(in_features=128, out_features=32, bias=True)
    )
    (norm2): LayerNorm((32,), eps=1e-05, elementwise_affine=True)
    (fe3): FE(
      (FC1): Linear(in_features=32, out_features=64, bias=True)
      (activation1): ReLU()
      (FC2): Linear(in_features=64, out_features=64, bias=True)
      (activation2): ReLU()
      (FC3): Linear(in_features=64, out_features=64, bias=True)
      (FC4): Linear(in_features=128, out_features=32, bias=True)
    )
    (norm3): LayerNorm((32,), eps=1e-05, elementwise_affine=True)
    (out): Linear(in_features=32, out_features=8, bias=True)
    (dropout): Dropout(p=0.0, inplace=False)
  )
  (total_power_reloc): Power_reallocate()
)
Total number of trainable parameters: 127248
Total number of trainable parameters in Tmodel: 42289
Total number of trainable parameters in Rmodel: 42408
-->-->-->-->-->-->-->-->-->--> start training ...
AE(
  (Tmodel): ae_backbone(
    (fe1): FE(
      (FC1): Linear(in_features=3, out_features=64, bias=True)
      (activation1): ReLU()
      (FC2): Linear(in_features=64, out_features=64, bias=True)
      (activation2): ReLU()
      (FC3): Linear(in_features=64, out_features=64, bias=True)
      (FC4): Linear(in_features=128, out_features=32, bias=True)
    )
    (norm1): LayerNorm((32,), eps=1e-05, elementwise_affine=True)
    (fe2): FE(
      (FC1): Linear(in_features=32, out_features=64, bias=True)
      (activation1): ReLU()
      (FC2): Linear(in_features=64, out_features=64, bias=True)
      (activation2): ReLU()
      (FC3): Linear(in_features=64, out_features=64, bias=True)
      (FC4): Linear(in_features=128, out_features=32, bias=True)
    )
    (norm2): LayerNorm((32,), eps=1e-05, elementwise_affine=True)
    (fe3): FE(
      (FC1): Linear(in_features=32, out_features=64, bias=True)
      (activation1): ReLU()
      (FC2): Linear(in_features=64, out_features=64, bias=True)
      (activation2): ReLU()
      (FC3): Linear(in_features=64, out_features=64, bias=True)
      (FC4): Linear(in_features=128, out_features=32, bias=True)
    )
    (norm3): LayerNorm((32,), eps=1e-05, elementwise_affine=True)
    (out1): Linear(in_features=32, out_features=8, bias=True)
    (out2): Linear(in_features=8, out_features=1, bias=True)
    (dropout): Dropout(p=0.0, inplace=False)
  )
  (Nmodel): ae_backbone(
    (fe1): FE(
      (FC1): Linear(in_features=7, out_features=64, bias=True)
      (activation1): ReLU()
      (FC2): Linear(in_features=64, out_features=64, bias=True)
      (activation2): ReLU()
      (FC3): Linear(in_features=64, out_features=64, bias=True)
      (FC4): Linear(in_features=128, out_features=32, bias=True)
    )
    (norm1): LayerNorm((32,), eps=1e-05, elementwise_affine=True)
    (fe2): FE(
      (FC1): Linear(in_features=32, out_features=64, bias=True)
      (activation1): ReLU()
      (FC2): Linear(in_features=64, out_features=64, bias=True)
      (activation2): ReLU()
      (FC3): Linear(in_features=64, out_features=64, bias=True)
      (FC4): Linear(in_features=128, out_features=32, bias=True)
    )
    (norm2): LayerNorm((32,), eps=1e-05, elementwise_affine=True)
    (fe3): FE(
      (FC1): Linear(in_features=32, out_features=64, bias=True)
      (activation1): ReLU()
      (FC2): Linear(in_features=64, out_features=64, bias=True)
      (activation2): ReLU()
      (FC3): Linear(in_features=64, out_features=64, bias=True)
      (FC4): Linear(in_features=128, out_features=32, bias=True)
    )
    (norm3): LayerNorm((32,), eps=1e-05, elementwise_affine=True)
    (out1): Linear(in_features=32, out_features=8, bias=True)
    (out2): Linear(in_features=8, out_features=1, bias=True)
    (dropout): Dropout(p=0.0, inplace=False)
  )
  (Rmodel): ae_backbone(
    (fe1): FE(
      (FC1): Linear(in_features=5, out_features=64, bias=True)
      (activation1): ReLU()
      (FC2): Linear(in_features=64, out_features=64, bias=True)
      (activation2): ReLU()
      (FC3): Linear(in_features=64, out_features=64, bias=True)
      (FC4): Linear(in_features=128, out_features=32, bias=True)
    )
    (norm1): LayerNorm((32,), eps=1e-05, elementwise_affine=True)
    (fe2): FE(
      (FC1): Linear(in_features=32, out_features=64, bias=True)
      (activation1): ReLU()
      (FC2): Linear(in_features=64, out_features=64, bias=True)
      (activation2): ReLU()
      (FC3): Linear(in_features=64, out_features=64, bias=True)
      (FC4): Linear(in_features=128, out_features=32, bias=True)
    )
    (norm2): LayerNorm((32,), eps=1e-05, elementwise_affine=True)
    (fe3): FE(
      (FC1): Linear(in_features=32, out_features=64, bias=True)
      (activation1): ReLU()
      (FC2): Linear(in_features=64, out_features=64, bias=True)
      (activation2): ReLU()
      (FC3): Linear(in_features=64, out_features=64, bias=True)
      (FC4): Linear(in_features=128, out_features=32, bias=True)
    )
    (norm3): LayerNorm((32,), eps=1e-05, elementwise_affine=True)
    (out): Linear(in_features=32, out_features=8, bias=True)
    (dropout): Dropout(p=0.0, inplace=False)
  )
  (total_power_reloc): Power_reallocate()
)
Total number of trainable parameters: 127248
Total number of trainable parameters in Tmodel: 42289
Total number of trainable parameters in Rmodel: 42408
-->-->-->-->-->-->-->-->-->--> start training ...
AE(
  (Tmodel): ae_backbone(
    (fe1): FE(
      (FC1): Linear(in_features=3, out_features=64, bias=True)
      (activation1): ReLU()
      (FC2): Linear(in_features=64, out_features=64, bias=True)
      (activation2): ReLU()
      (FC3): Linear(in_features=64, out_features=64, bias=True)
      (FC4): Linear(in_features=128, out_features=32, bias=True)
    )
    (norm1): LayerNorm((32,), eps=1e-05, elementwise_affine=True)
    (fe2): FE(
      (FC1): Linear(in_features=32, out_features=64, bias=True)
      (activation1): ReLU()
      (FC2): Linear(in_features=64, out_features=64, bias=True)
      (activation2): ReLU()
      (FC3): Linear(in_features=64, out_features=64, bias=True)
      (FC4): Linear(in_features=128, out_features=32, bias=True)
    )
    (norm2): LayerNorm((32,), eps=1e-05, elementwise_affine=True)
    (fe3): FE(
      (FC1): Linear(in_features=32, out_features=64, bias=True)
      (activation1): ReLU()
      (FC2): Linear(in_features=64, out_features=64, bias=True)
      (activation2): ReLU()
      (FC3): Linear(in_features=64, out_features=64, bias=True)
      (FC4): Linear(in_features=128, out_features=32, bias=True)
    )
    (norm3): LayerNorm((32,), eps=1e-05, elementwise_affine=True)
    (out1): Linear(in_features=32, out_features=8, bias=True)
    (out2): Linear(in_features=8, out_features=1, bias=True)
    (dropout): Dropout(p=0.0, inplace=False)
  )
  (Nmodel): ae_backbone(
    (fe1): FE(
      (FC1): Linear(in_features=7, out_features=64, bias=True)
      (activation1): ReLU()
      (FC2): Linear(in_features=64, out_features=64, bias=True)
      (activation2): ReLU()
      (FC3): Linear(in_features=64, out_features=64, bias=True)
      (FC4): Linear(in_features=128, out_features=32, bias=True)
    )
    (norm1): LayerNorm((32,), eps=1e-05, elementwise_affine=True)
    (fe2): FE(
      (FC1): Linear(in_features=32, out_features=64, bias=True)
      (activation1): ReLU()
      (FC2): Linear(in_features=64, out_features=64, bias=True)
      (activation2): ReLU()
      (FC3): Linear(in_features=64, out_features=64, bias=True)
      (FC4): Linear(in_features=128, out_features=32, bias=True)
    )
    (norm2): LayerNorm((32,), eps=1e-05, elementwise_affine=True)
    (fe3): FE(
      (FC1): Linear(in_features=32, out_features=64, bias=True)
      (activation1): ReLU()
      (FC2): Linear(in_features=64, out_features=64, bias=True)
      (activation2): ReLU()
      (FC3): Linear(in_features=64, out_features=64, bias=True)
      (FC4): Linear(in_features=128, out_features=32, bias=True)
    )
    (norm3): LayerNorm((32,), eps=1e-05, elementwise_affine=True)
    (out1): Linear(in_features=32, out_features=8, bias=True)
    (out2): Linear(in_features=8, out_features=1, bias=True)
    (dropout): Dropout(p=0.0, inplace=False)
  )
  (Rmodel): ae_backbone(
    (fe1): FE(
      (FC1): Linear(in_features=5, out_features=64, bias=True)
      (activation1): ReLU()
      (FC2): Linear(in_features=64, out_features=64, bias=True)
      (activation2): ReLU()
      (FC3): Linear(in_features=64, out_features=64, bias=True)
      (FC4): Linear(in_features=128, out_features=32, bias=True)
    )
    (norm1): LayerNorm((32,), eps=1e-05, elementwise_affine=True)
    (fe2): FE(
      (FC1): Linear(in_features=32, out_features=64, bias=True)
      (activation1): ReLU()
      (FC2): Linear(in_features=64, out_features=64, bias=True)
      (activation2): ReLU()
      (FC3): Linear(in_features=64, out_features=64, bias=True)
      (FC4): Linear(in_features=128, out_features=32, bias=True)
    )
    (norm2): LayerNorm((32,), eps=1e-05, elementwise_affine=True)
    (fe3): FE(
      (FC1): Linear(in_features=32, out_features=64, bias=True)
      (activation1): ReLU()
      (FC2): Linear(in_features=64, out_features=64, bias=True)
      (activation2): ReLU()
      (FC3): Linear(in_features=64, out_features=64, bias=True)
      (FC4): Linear(in_features=128, out_features=32, bias=True)
    )
    (norm3): LayerNorm((32,), eps=1e-05, elementwise_affine=True)
    (out): Linear(in_features=32, out_features=8, bias=True)
    (dropout): Dropout(p=0.0, inplace=False)
  )
  (total_power_reloc): Power_reallocate()
)
Total number of trainable parameters: 127248
Total number of trainable parameters in Tmodel: 42289
Total number of trainable parameters in Rmodel: 42408
-->-->-->-->-->-->-->-->-->--> start training ...
AE(
  (Tmodel): ae_backbone(
    (fe1): FE(
      (FC1): Linear(in_features=3, out_features=64, bias=True)
      (activation1): ReLU()
      (FC2): Linear(in_features=64, out_features=64, bias=True)
      (activation2): ReLU()
      (FC3): Linear(in_features=64, out_features=64, bias=True)
      (FC4): Linear(in_features=128, out_features=32, bias=True)
    )
    (norm1): LayerNorm((32,), eps=1e-05, elementwise_affine=True)
    (fe2): FE(
      (FC1): Linear(in_features=32, out_features=64, bias=True)
      (activation1): ReLU()
      (FC2): Linear(in_features=64, out_features=64, bias=True)
      (activation2): ReLU()
      (FC3): Linear(in_features=64, out_features=64, bias=True)
      (FC4): Linear(in_features=128, out_features=32, bias=True)
    )
    (norm2): LayerNorm((32,), eps=1e-05, elementwise_affine=True)
    (fe3): FE(
      (FC1): Linear(in_features=32, out_features=64, bias=True)
      (activation1): ReLU()
      (FC2): Linear(in_features=64, out_features=64, bias=True)
      (activation2): ReLU()
      (FC3): Linear(in_features=64, out_features=64, bias=True)
      (FC4): Linear(in_features=128, out_features=32, bias=True)
    )
    (norm3): LayerNorm((32,), eps=1e-05, elementwise_affine=True)
    (out1): Linear(in_features=32, out_features=8, bias=True)
    (out2): Linear(in_features=8, out_features=1, bias=True)
    (dropout): Dropout(p=0.0, inplace=False)
  )
  (Nmodel): ae_backbone(
    (fe1): FE(
      (FC1): Linear(in_features=7, out_features=64, bias=True)
      (activation1): ReLU()
      (FC2): Linear(in_features=64, out_features=64, bias=True)
      (activation2): ReLU()
      (FC3): Linear(in_features=64, out_features=64, bias=True)
      (FC4): Linear(in_features=128, out_features=32, bias=True)
    )
    (norm1): LayerNorm((32,), eps=1e-05, elementwise_affine=True)
    (fe2): FE(
      (FC1): Linear(in_features=32, out_features=64, bias=True)
      (activation1): ReLU()
      (FC2): Linear(in_features=64, out_features=64, bias=True)
      (activation2): ReLU()
      (FC3): Linear(in_features=64, out_features=64, bias=True)
      (FC4): Linear(in_features=128, out_features=32, bias=True)
    )
    (norm2): LayerNorm((32,), eps=1e-05, elementwise_affine=True)
    (fe3): FE(
      (FC1): Linear(in_features=32, out_features=64, bias=True)
      (activation1): ReLU()
      (FC2): Linear(in_features=64, out_features=64, bias=True)
      (activation2): ReLU()
      (FC3): Linear(in_features=64, out_features=64, bias=True)
      (FC4): Linear(in_features=128, out_features=32, bias=True)
    )
    (norm3): LayerNorm((32,), eps=1e-05, elementwise_affine=True)
    (out1): Linear(in_features=32, out_features=8, bias=True)
    (out2): Linear(in_features=8, out_features=1, bias=True)
    (dropout): Dropout(p=0.0, inplace=False)
  )
  (Rmodel): ae_backbone(
    (fe1): FE(
      (FC1): Linear(in_features=5, out_features=64, bias=True)
      (activation1): ReLU()
      (FC2): Linear(in_features=64, out_features=64, bias=True)
      (activation2): ReLU()
      (FC3): Linear(in_features=64, out_features=64, bias=True)
      (FC4): Linear(in_features=128, out_features=32, bias=True)
    )
    (norm1): LayerNorm((32,), eps=1e-05, elementwise_affine=True)
    (fe2): FE(
      (FC1): Linear(in_features=32, out_features=64, bias=True)
      (activation1): ReLU()
      (FC2): Linear(in_features=64, out_features=64, bias=True)
      (activation2): ReLU()
      (FC3): Linear(in_features=64, out_features=64, bias=True)
      (FC4): Linear(in_features=128, out_features=32, bias=True)
    )
    (norm2): LayerNorm((32,), eps=1e-05, elementwise_affine=True)
    (fe3): FE(
      (FC1): Linear(in_features=32, out_features=64, bias=True)
      (activation1): ReLU()
      (FC2): Linear(in_features=64, out_features=64, bias=True)
      (activation2): ReLU()
      (FC3): Linear(in_features=64, out_features=64, bias=True)
      (FC4): Linear(in_features=128, out_features=32, bias=True)
    )
    (norm3): LayerNorm((32,), eps=1e-05, elementwise_affine=True)
    (out): Linear(in_features=32, out_features=8, bias=True)
    (dropout): Dropout(p=0.0, inplace=False)
  )
  (total_power_reloc): Power_reallocate()
)
Total number of trainable parameters: 127248
Total number of trainable parameters in Tmodel: 42289
Total number of trainable parameters in Rmodel: 42408
-->-->-->-->-->-->-->-->-->--> start training ...
AE(
  (Tmodel): ae_backbone(
    (fe1): FE(
      (FC1): Linear(in_features=3, out_features=64, bias=True)
      (activation1): ReLU()
      (FC2): Linear(in_features=64, out_features=64, bias=True)
      (activation2): ReLU()
      (FC3): Linear(in_features=64, out_features=64, bias=True)
      (FC4): Linear(in_features=128, out_features=32, bias=True)
    )
    (norm1): LayerNorm((32,), eps=1e-05, elementwise_affine=True)
    (fe2): FE(
      (FC1): Linear(in_features=32, out_features=64, bias=True)
      (activation1): ReLU()
      (FC2): Linear(in_features=64, out_features=64, bias=True)
      (activation2): ReLU()
      (FC3): Linear(in_features=64, out_features=64, bias=True)
      (FC4): Linear(in_features=128, out_features=32, bias=True)
    )
    (norm2): LayerNorm((32,), eps=1e-05, elementwise_affine=True)
    (fe3): FE(
      (FC1): Linear(in_features=32, out_features=64, bias=True)
      (activation1): ReLU()
      (FC2): Linear(in_features=64, out_features=64, bias=True)
      (activation2): ReLU()
      (FC3): Linear(in_features=64, out_features=64, bias=True)
      (FC4): Linear(in_features=128, out_features=32, bias=True)
    )
    (norm3): LayerNorm((32,), eps=1e-05, elementwise_affine=True)
    (out1): Linear(in_features=32, out_features=8, bias=True)
    (out2): Linear(in_features=8, out_features=1, bias=True)
    (dropout): Dropout(p=0.0, inplace=False)
  )
  (Nmodel): ae_backbone(
    (fe1): FE(
      (FC1): Linear(in_features=7, out_features=64, bias=True)
      (activation1): ReLU()
      (FC2): Linear(in_features=64, out_features=64, bias=True)
      (activation2): ReLU()
      (FC3): Linear(in_features=64, out_features=64, bias=True)
      (FC4): Linear(in_features=128, out_features=32, bias=True)
    )
    (norm1): LayerNorm((32,), eps=1e-05, elementwise_affine=True)
    (fe2): FE(
      (FC1): Linear(in_features=32, out_features=64, bias=True)
      (activation1): ReLU()
      (FC2): Linear(in_features=64, out_features=64, bias=True)
      (activation2): ReLU()
      (FC3): Linear(in_features=64, out_features=64, bias=True)
      (FC4): Linear(in_features=128, out_features=32, bias=True)
    )
    (norm2): LayerNorm((32,), eps=1e-05, elementwise_affine=True)
    (fe3): FE(
      (FC1): Linear(in_features=32, out_features=64, bias=True)
      (activation1): ReLU()
      (FC2): Linear(in_features=64, out_features=64, bias=True)
      (activation2): ReLU()
      (FC3): Linear(in_features=64, out_features=64, bias=True)
      (FC4): Linear(in_features=128, out_features=32, bias=True)
    )
    (norm3): LayerNorm((32,), eps=1e-05, elementwise_affine=True)
    (out1): Linear(in_features=32, out_features=8, bias=True)
    (out2): Linear(in_features=8, out_features=1, bias=True)
    (dropout): Dropout(p=0.0, inplace=False)
  )
  (Rmodel): ae_backbone(
    (fe1): FE(
      (FC1): Linear(in_features=5, out_features=64, bias=True)
      (activation1): ReLU()
      (FC2): Linear(in_features=64, out_features=64, bias=True)
      (activation2): ReLU()
      (FC3): Linear(in_features=64, out_features=64, bias=True)
      (FC4): Linear(in_features=128, out_features=32, bias=True)
    )
    (norm1): LayerNorm((32,), eps=1e-05, elementwise_affine=True)
    (fe2): FE(
      (FC1): Linear(in_features=32, out_features=64, bias=True)
      (activation1): ReLU()
      (FC2): Linear(in_features=64, out_features=64, bias=True)
      (activation2): ReLU()
      (FC3): Linear(in_features=64, out_features=64, bias=True)
      (FC4): Linear(in_features=128, out_features=32, bias=True)
    )
    (norm2): LayerNorm((32,), eps=1e-05, elementwise_affine=True)
    (fe3): FE(
      (FC1): Linear(in_features=32, out_features=64, bias=True)
      (activation1): ReLU()
      (FC2): Linear(in_features=64, out_features=64, bias=True)
      (activation2): ReLU()
      (FC3): Linear(in_features=64, out_features=64, bias=True)
      (FC4): Linear(in_features=128, out_features=32, bias=True)
    )
    (norm3): LayerNorm((32,), eps=1e-05, elementwise_affine=True)
    (out): Linear(in_features=32, out_features=8, bias=True)
    (dropout): Dropout(p=0.0, inplace=False)
  )
  (total_power_reloc): Power_reallocate()
)
Total number of trainable parameters: 127248
Total number of trainable parameters in Tmodel: 42289
Total number of trainable parameters in Rmodel: 42408
-->-->-->-->-->-->-->-->-->--> start training ...

GBAF train stats: batch#0, lr 0.001, snr1 3.0, snr2 100.0, BS 50000, NLL Loss 2.28525019, Diff Loss 0.51745379
Testing started: ... 
AE(
  (Tmodel): ae_backbone(
    (fe1): FE(
      (FC1): Linear(in_features=3, out_features=64, bias=True)
      (activation1): ReLU()
      (FC2): Linear(in_features=64, out_features=64, bias=True)
      (activation2): ReLU()
      (FC3): Linear(in_features=64, out_features=64, bias=True)
      (FC4): Linear(in_features=128, out_features=32, bias=True)
    )
    (norm1): LayerNorm((32,), eps=1e-05, elementwise_affine=True)
    (fe2): FE(
      (FC1): Linear(in_features=32, out_features=64, bias=True)
      (activation1): ReLU()
      (FC2): Linear(in_features=64, out_features=64, bias=True)
      (activation2): ReLU()
      (FC3): Linear(in_features=64, out_features=64, bias=True)
      (FC4): Linear(in_features=128, out_features=32, bias=True)
    )
    (norm2): LayerNorm((32,), eps=1e-05, elementwise_affine=True)
    (fe3): FE(
      (FC1): Linear(in_features=32, out_features=64, bias=True)
      (activation1): ReLU()
      (FC2): Linear(in_features=64, out_features=64, bias=True)
      (activation2): ReLU()
      (FC3): Linear(in_features=64, out_features=64, bias=True)
      (FC4): Linear(in_features=128, out_features=32, bias=True)
    )
    (norm3): LayerNorm((32,), eps=1e-05, elementwise_affine=True)
    (out1): Linear(in_features=32, out_features=8, bias=True)
    (out2): Linear(in_features=8, out_features=1, bias=True)
    (dropout): Dropout(p=0.0, inplace=False)
  )
  (Nmodel): ae_backbone(
    (fe1): FE(
      (FC1): Linear(in_features=7, out_features=64, bias=True)
      (activation1): ReLU()
      (FC2): Linear(in_features=64, out_features=64, bias=True)
      (activation2): ReLU()
      (FC3): Linear(in_features=64, out_features=64, bias=True)
      (FC4): Linear(in_features=128, out_features=32, bias=True)
    )
    (norm1): LayerNorm((32,), eps=1e-05, elementwise_affine=True)
    (fe2): FE(
      (FC1): Linear(in_features=32, out_features=64, bias=True)
      (activation1): ReLU()
      (FC2): Linear(in_features=64, out_features=64, bias=True)
      (activation2): ReLU()
      (FC3): Linear(in_features=64, out_features=64, bias=True)
      (FC4): Linear(in_features=128, out_features=32, bias=True)
    )
    (norm2): LayerNorm((32,), eps=1e-05, elementwise_affine=True)
    (fe3): FE(
      (FC1): Linear(in_features=32, out_features=64, bias=True)
      (activation1): ReLU()
      (FC2): Linear(in_features=64, out_features=64, bias=True)
      (activation2): ReLU()
      (FC3): Linear(in_features=64, out_features=64, bias=True)
      (FC4): Linear(in_features=128, out_features=32, bias=True)
    )
    (norm3): LayerNorm((32,), eps=1e-05, elementwise_affine=True)
    (out1): Linear(in_features=32, out_features=8, bias=True)
    (out2): Linear(in_features=8, out_features=1, bias=True)
    (dropout): Dropout(p=0.0, inplace=False)
  )
  (Rmodel): ae_backbone(
    (fe1): FE(
      (FC1): Linear(in_features=5, out_features=64, bias=True)
      (activation1): ReLU()
      (FC2): Linear(in_features=64, out_features=64, bias=True)
      (activation2): ReLU()
      (FC3): Linear(in_features=64, out_features=64, bias=True)
      (FC4): Linear(in_features=128, out_features=32, bias=True)
    )
    (norm1): LayerNorm((32,), eps=1e-05, elementwise_affine=True)
    (fe2): FE(
      (FC1): Linear(in_features=32, out_features=64, bias=True)
      (activation1): ReLU()
      (FC2): Linear(in_features=64, out_features=64, bias=True)
      (activation2): ReLU()
      (FC3): Linear(in_features=64, out_features=64, bias=True)
      (FC4): Linear(in_features=128, out_features=32, bias=True)
    )
    (norm2): LayerNorm((32,), eps=1e-05, elementwise_affine=True)
    (fe3): FE(
      (FC1): Linear(in_features=32, out_features=64, bias=True)
      (activation1): ReLU()
      (FC2): Linear(in_features=64, out_features=64, bias=True)
      (activation2): ReLU()
      (FC3): Linear(in_features=64, out_features=64, bias=True)
      (FC4): Linear(in_features=128, out_features=32, bias=True)
    )
    (norm3): LayerNorm((32,), eps=1e-05, elementwise_affine=True)
    (out): Linear(in_features=32, out_features=8, bias=True)
    (dropout): Dropout(p=0.0, inplace=False)
  )
  (total_power_reloc): Power_reallocate()
)
Total number of trainable parameters: 127248
Total number of trainable parameters in Tmodel: 42289
Total number of trainable parameters in Rmodel: 42408
-->-->-->-->-->-->-->-->-->--> start training ...

GBAF train stats: batch#0, lr 0.001, snr1 3.0, snr2 100.0, BS 50000, NLL Loss 2.28525019, Diff Loss 0.51745379
…
