AE(
  (Tmodel): ae_backbone(
    (fe1): FE(
      (FC1): Linear(in_features=15, out_features=512, bias=True)
      (activation1): ReLU()
      (FC2): Linear(in_features=512, out_features=512, bias=True)
      (activation2): ReLU()
      (FC3): Linear(in_features=512, out_features=512, bias=True)
      (FC4): Linear(in_features=1024, out_features=256, bias=True)
    )
    (norm1): LayerNorm((256,), eps=1e-05, elementwise_affine=True)
    (out1): Linear(in_features=256, out_features=64, bias=True)
    (out2): Linear(in_features=64, out_features=1, bias=True)
    (dropout): Dropout(p=0.0, inplace=False)
  )
  (Rmodel): ae_backbone(
    (fe1): FE(
      (FC1): Linear(in_features=12, out_features=64, bias=True)
      (activation1): ReLU()
      (FC2): Linear(in_features=64, out_features=64, bias=True)
      (activation2): ReLU()
      (FC3): Linear(in_features=64, out_features=64, bias=True)
      (FC4): Linear(in_features=128, out_features=32, bias=True)
    )
    (norm1): LayerNorm((32,), eps=1e-05, elementwise_affine=True)
    (out): Linear(in_features=32, out_features=16, bias=True)
    (dropout): Dropout(p=0.0, inplace=False)
  )
  (total_power_reloc): Power_reallocate()
)
Total number of trainable parameters: 826814
Total number of trainable parameters in Tmodel: 812929
Total number of trainable parameters in Rmodel: 13872
-->-->-->-->-->-->-->-->-->--> start training ...

GBAF train stats: batch#0, lr 0.001, snr1 -1.0, snr2 100.0, BS 50000, Loss 2.95303512
Testing started: ... 

GBAF test stats: batch#0, SER 0.9120519757, numErr 456026, num_pkts 5.00e+05
Time elapsed: 0.012178480625152588 mins

GBAF test stats: batch#0, SER 0.9120519757, numErr 456026
Final test SER = 0.9120519757270813, at SNR1 -1.0, SNR2 100.0 for rate 4/12
Final test PER = 0.9120519757270813, at SNR1 -1.0, SNR2 100.0 for rate 4/12
AE(
  (Tmodel): ae_backbone(
    (fe1): FE(
      (FC1): Linear(in_features=15, out_features=512, bias=True)
      (activation1): ReLU()
      (FC2): Linear(in_features=512, out_features=512, bias=True)
      (activation2): ReLU()
      (FC3): Linear(in_features=512, out_features=512, bias=True)
      (FC4): Linear(in_features=1024, out_features=256, bias=True)
    )
    (norm1): LayerNorm((256,), eps=1e-05, elementwise_affine=True)
    (out1): Linear(in_features=256, out_features=64, bias=True)
    (out2): Linear(in_features=64, out_features=1, bias=True)
    (dropout): Dropout(p=0.0, inplace=False)
  )
  (Rmodel): ae_backbone(
    (fe1): FE(
      (FC1): Linear(in_features=12, out_features=64, bias=True)
      (activation1): ReLU()
      (FC2): Linear(in_features=64, out_features=64, bias=True)
      (activation2): ReLU()
      (FC3): Linear(in_features=64, out_features=64, bias=True)
      (FC4): Linear(in_features=128, out_features=32, bias=True)
    )
    (norm1): LayerNorm((32,), eps=1e-05, elementwise_affine=True)
    (out): Linear(in_features=32, out_features=16, bias=True)
    (dropout): Dropout(p=0.0, inplace=False)
  )
  (total_power_reloc): Power_reallocate()
)
Total number of trainable parameters: 826814
Total number of trainable parameters in Tmodel: 812929
Total number of trainable parameters in Rmodel: 13872
-->-->-->-->-->-->-->-->-->--> start training ...

GBAF train stats: batch#0, lr 0.001, snr1 -1.0, snr2 100.0, BS 50000, Loss 2.95303512
Testing started: ... 

GBAF test stats: batch#0, SER 0.9120519757, numErr 456026, num_pkts 5.00e+05
Time elapsed: 0.01211154858271281 mins

GBAF test stats: batch#0, SER 0.9120519757, numErr 456026
Final test SER = 0.9120519757270813, at SNR1 -1.0, SNR2 100.0 for rate 4/12
Final test PER = 0.9120519757270813, at SNR1 -1.0, SNR2 100.0 for rate 4/12
AE(
  (Tmodel): ae_backbone(
    (fe1): FE(
      (FC1): Linear(in_features=15, out_features=512, bias=True)
      (activation1): ReLU()
      (FC2): Linear(in_features=512, out_features=512, bias=True)
      (activation2): ReLU()
      (FC3): Linear(in_features=512, out_features=512, bias=True)
      (FC4): Linear(in_features=1024, out_features=256, bias=True)
    )
    (norm1): LayerNorm((256,), eps=1e-05, elementwise_affine=True)
    (out1): Linear(in_features=256, out_features=64, bias=True)
    (out2): Linear(in_features=64, out_features=1, bias=True)
    (dropout): Dropout(p=0.0, inplace=False)
  )
  (Rmodel): ae_backbone(
    (fe1): FE(
      (FC1): Linear(in_features=12, out_features=64, bias=True)
      (activation1): ReLU()
      (FC2): Linear(in_features=64, out_features=64, bias=True)
      (activation2): ReLU()
      (FC3): Linear(in_features=64, out_features=64, bias=True)
      (FC4): Linear(in_features=128, out_features=32, bias=True)
    )
    (norm1): LayerNorm((32,), eps=1e-05, elementwise_affine=True)
    (out): Linear(in_features=32, out_features=16, bias=True)
    (dropout): Dropout(p=0.0, inplace=False)
  )
  (total_power_reloc): Power_reallocate()
)
Total number of trainable parameters: 826814
Total number of trainable parameters in Tmodel: 812929
Total number of trainable parameters in Rmodel: 13872
-->-->-->-->-->-->-->-->-->--> start training ...

GBAF train stats: batch#0, lr 0.001, snr1 -1.0, snr2 100.0, BS 50000, Loss 2.95303512
…
Final test SER = 0.0014420000370591879, at SNR1 -1.0, SNR2 100.0 for rate 4/12
Final test PER = 0.0014420000370591879, at SNR1 -1.0, SNR2 100.0 for rate 4/12

GBAF train stats: batch#20000, lr 0.001, snr1 -1.0, snr2 100.0, BS 50000, Loss 0.00288624
Testing started: ... 

GBAF test stats: batch#0, SER 0.000884, numErr 442, num_pkts 5.00e+05
Time elapsed: 0.011952308813730876 mins

GBAF test stats: batch#0, SER 0.000884, numErr 442
Final test SER = 0.0008839999791234732, at SNR1 -1.0, SNR2 100.0 for rate 4/12
Final test PER = 0.0008839999791234732, at SNR1 -1.0, SNR2 100.0 for rate 4/12
AE(
  (Tmodel): ae_backbone(
    (fe1): FE(
      (FC1): Linear(in_features=15, out_features=512, bias=True)
      (activation1): ReLU()
      (FC2): Linear(in_features=512, out_features=512, bias=True)
      (activation2): ReLU()
      (FC3): Linear(in_features=512, out_features=512, bias=True)
      (FC4): Linear(in_features=1024, out_features=256, bias=True)
    )
    (norm1): LayerNorm((256,), eps=1e-05, elementwise_affine=True)
    (out1): Linear(in_features=256, out_features=64, bias=True)
    (out2): Linear(in_features=64, out_features=1, bias=True)
    (dropout): Dropout(p=0.0, inplace=False)
  )
  (Rmodel): ae_backbone(
    (fe1): FE(
      (FC1): Linear(in_features=12, out_features=64, bias=True)
      (activation1): ReLU()
      (FC2): Linear(in_features=64, out_features=64, bias=True)
      (activation2): ReLU()
      (FC3): Linear(in_features=64, out_features=64, bias=True)
      (FC4): Linear(in_features=128, out_features=32, bias=True)
    )
    (norm1): LayerNorm((32,), eps=1e-05, elementwise_affine=True)
    (out): Linear(in_features=32, out_features=16, bias=True)
    (dropout): Dropout(p=0.0, inplace=False)
  )
  (total_power_reloc): Power_reallocate()
)
Total number of trainable parameters: 826814
Total number of trainable parameters in Tmodel: 812929
Total number of trainable parameters in Rmodel: 13872
-->-->-->-->-->-->-->-->-->--> start training ...

GBAF train stats: batch#0, lr 0.001, snr1 -1.0, snr2 100.0, BS 50000, Loss 2.95303512
…
