AE(
  (Tmodel): ae_backbone(
    (fe1): FE(
      (FC1): Linear(in_features=15, out_features=32, bias=True)
      (activation1): ReLU()
      (FC2): Linear(in_features=32, out_features=32, bias=True)
      (activation2): ReLU()
      (FC3): Linear(in_features=32, out_features=32, bias=True)
      (FC4): Linear(in_features=64, out_features=16, bias=True)
    )
    (norm1): LayerNorm((16,), eps=1e-05, elementwise_affine=True)
    (out1): Linear(in_features=16, out_features=4, bias=True)
    (out2): Linear(in_features=4, out_features=1, bias=True)
    (dropout): Dropout(p=0.0, inplace=False)
  )
  (Rmodel): ae_backbone(
    (fe1): FE(
      (FC1): Linear(in_features=12, out_features=16, bias=True)
      (activation1): ReLU()
      (FC2): Linear(in_features=16, out_features=16, bias=True)
      (activation2): ReLU()
      (FC3): Linear(in_features=16, out_features=16, bias=True)
      (FC4): Linear(in_features=32, out_features=8, bias=True)
    )
    (norm1): LayerNorm((8,), eps=1e-05, elementwise_affine=True)
    (out): Linear(in_features=8, out_features=16, bias=True)
    (dropout): Dropout(p=0.0, inplace=False)
  )
  (total_power_reloc): Power_reallocate()
)
Total number of trainable parameters: 4958
Total number of trainable parameters in Tmodel: 3769
Total number of trainable parameters in Rmodel: 1176
-->-->-->-->-->-->-->-->-->--> start training ...

GBAF train stats: batch#0, lr 0.001, snr1 -1.0, snr2 100.0, BS 50000, Loss 2.98596501
…
